W1.npy (npy, 62848 bytes, 1 tensors)

array f8 [10, 784]
00000000: 624e 7df2 8a76 d23f 9f7e d215 8768 a6bf
00000010: 826d 2ce8 2145 c73f 8801 98cc 819e d7bf
00000020: d808 6b80 447f c9bf e151 a783 d21d c0bf
00000030: 64f7 3d66 494b bcbf 081b fa39 915e b33f
00000040: 0fd0 cfe4 07a1 c93f 61ed bd3d f872 d43f
00000050: a550 e902 b895 c1bf 1dd9 8800 9527 c6bf
00000060: afd2 e7b0 0721 e33f d56e 551c af50 b53f
00000070: 02bc 6392 b360 c3bf 502d ee95 f40a cc3f
00000080: 73d9 9aad d4f6 d1bf b026 b8d9 20e7 d03f
00000090: 2394 b1aa 659b ce3f abac fa35 5409 d43f
000000a0: f9b1 67a7 d087 d5bf 8fad a9e8 309b 9c3f
000000b0: 5ee7 1093 3ee8 c0bf 3539 1387 d380 c63f
000000c0: 875d aaf5 2ea7 d23f 41b3 ad77 d289 983f
000000d0: 9ac4 8226 c770 a33f 94f4 4385 3b57 e3bf
000000e0: 3db7 df02 b611 db3f 2b84 c0da de4f e0bf
000000f0: 00d0 1af4 f238 d8bf f8d3 85e8 257b d33f
00000100: a042 3349 529f bcbf 1729 450e 23ca c33f
00000110: a4df b013 47f0 a93f bb5d 2d5c e2c3 e13f
00000120: 1252 c868 ebfc b2bf f886 12ff 0e7d a03f
00000130: 0db9 8670 f344 e73f 7091 cb43 9309 e13f
00000140: dc5f 64a8 fbc8 e1bf a310 f620 41ba cf3f
00000150: f08d f5ea dbee b6bf f7c7 f15f 9fa1 c13f
00000160: 410b ff17 3d4d e2bf 012d 9aaf 1fd8 cdbf
00000170: ecd6 b925 5589 cbbf 406e 00f5 30eb 6e3f
00000180: 6652 960b 9cf4 dd3f 3410 bff0 be5b 93bf
00000190: 5805 75d3 f299 e03f 7395 cf08 d5ef e0bf
000001a0: ab0c 7485 f489 e2bf fbd9 6067 830c d33f
000001b0: 2edc 520e 7cb1 d83f 8e36 502a fa60 d53f
000001c0: dbd8 4552 8258 e03f b6fb b9b0 e6c6 d33f
000001d0: bf09 2907 1871 e3bf f4ec c89c d096 cfbf
000001e0: 4673 1e64 10b3 db3f 3f0c 1a2d 37af e1bf
000001f0: a3c6 c270 43f4 d63f cc1e bf60 5a98 da3f
00000200: 07c0 f901 5ba4 d4bf 2e85 1e0c 069d bb3f
00000210: caf5 1cf6 970b c6bf c6d8 907c d3fe c1bf
00000220: 96ff 4654 5c2b c5bf 2dd6 de49 1c60 d8bf
00000230: 1ed7 0c63 6869 debf 9cbc cfba 5e6a c53f
00000240: 3eeb fd0c 8b6b e13f add7 c0f7 820c c23f
00000250: 6e34 b42e 9e15 e03f c28b 465c abec cfbf
00000260: b767 ad59 3677 d13f 72bc 3114 c942 e03f
00000270: 6ed8 675e 41e9 cc3f 59be 11f6 4ef2 d2bf
00000280: c353 c4c1 f1ec d0bf f4cc 0e82 9e9f 6ebf
00000290: 7663 fe3e e02f be3f 1495 d382 f4df e53f
000002a0: 4241 7cb2 b853 d73f 96ce 2982 6568 ddbf
000002b0: 1406 7280 56d7 413f 8551 cb08 68ef d03f
000002c0: 0fa6 a320 b5ad c03f 4d4f 87b0 1f49 e03f
000002d0: 2708 ba85 0fe7 afbf 8fa0 0b1c 172e d13f
000002e0: 2b43 adec 7e9d b23f faba d179 a8e4 b13f
000002f0: 8632 3c89 2823 c1bf 28dd fa5c 17b0 cabf
00000300: d8ba 6f1d 5b9d dd3f be8a 8ba2 e368 c03f
00000310: 884d b0c5 2d88 c53f 30c4 28b9 a6c5 b1bf
00000320: 58c3 c422 35ef e03f ee73 5548 1018 ca3f
00000330: be3f fa0b 093a c5bf 3c0e 2298 7d10 c43f
00000340: f1c9 619c 880c cabf e5ee afc4 8f67 b13f
00000350: 6915 300c 4ee9 db3f 70c5 d940 47a7 d13f
00000360: 0dee 8fae 671a dc3f 1fde b60d 56a0 d23f
00000370: 197a 82f0 22d8 c23f 1da6 4c1c d6d6 c9bf
00000380: cd2e 650f 90a7 dd3f 4a25 542d e1a3 c4bf
00000390: 79bc 3d02 938a 9f3f c371 d998 49d3 b43f
000003a0: 41b8 7733 a602 a9bf 297c efcf 4596 d8bf
000003b0: 689c d4f3 8f9d cf3f f9d1 bdd4 5ed2 e53f
000003c0: 6350 a1bb bf63 c0bf 7cf4 187a 88fa cfbf
000003d0: 0fea 1e7d 0e2d e13f 1f64 48a6 39d4 c33f
000003e0: 49f3 f8b9 f47a b93f f879 7cac c1fe ccbf
000003f0: 4083 7e95 0172 dc3f 2802 e0f9 e0e5 d2bf
00000400: ee9a 3c5d cef1 cc3f 5536 f552 179e e3bf
00000410: d362 bc3c 1dc7 c03f 6a8c 4768 0118 cebf
00000420: 687b b09c 8fb9 b43f 779e 01c1 1cf3 c4bf
00000430: 962d 026d eaa4 c83f da06 c3c2 fa6a c4bf
00000440: 10d4 2b77 d229 d1bf 46c9 717f 3323 ce3f
00000450: 2c3e 8823 cc67 b8bf ebed b523 e966 c03f
00000460: 3863 90a5 0e76 d23f 25ae b566 41fa e5bf
00000470: 231c af33 111b e13f 3d63 d029 e278 953f
00000480: c8e4 a8b9 3ae3 d6bf b3f1 2b70 5f4c de3f
00000490: 3562 a5a1 9123 a4bf e995 20f5 87f4 a0bf
000004a0: a52f 8dda 004c e13f e989 08f0 73f0 dabf
000004b0: c69d 6d4d 2748 be3f 4d42 1c84 ad13 dc3f
000004c0: 05c3 fd6b 48ec b1bf 337d 02c1 1d86 cb3f
000004d0: f1ad f391 a347 c7bf e400 2826 d4da cabf
000004e0: c092 48e4 c0c4 523f cc85 7dd6 649b df3f
000004f0: 2f9f 47f5 bd8f d13f 9c06 7ccb 4c8c e13f
00000500: 5fa8 ccbe 6036 babf 4362 2f79 2676 92bf
00000510: f103 3819 30c0 b53f 0d81 73cc 5457 c9bf
00000520: 93da 660d 2db2 b13f 2e2b 2feb e37e d8bf
00000530: 1857 bbb8 6372 bcbf 6742 dc7e 00ef c13f
00000540: d6e1 60d3 a165 d03f 9bb0 e255 ab42 c33f
00000550: a18f 8277 e810 c33f 9b99 99a8 401a dbbf
00000560: a381 220b 8157 d43f d242 0e7b 2879 c2bf
00000570: a50b 4b6f 5c71 eb3f c8ec 49c2 7660 dc3f
00000580: a8ca 1e7d dea6 ce3f 0a59 06f5 8a20 cebf
00000590: 1c08 4907 1368 cc3f 9c6a 8e37 48be dbbf
000005a0: f279 7323 269d d23f 87e7 7cac 7017 bcbf
000005b0: 6f6f 44a4 996f d03f 3ccd 37e5 20c0 c5bf
000005c0: c15f 449d 6d93 e2bf 40ad df5a e289 e43f
000005d0: 69f0 12d1 515e cd3f 380a 9f10 d6dc ccbf
000005e0: bca4 d528 a4d7 e83f 7804 b156 db0e e23f
000005f0: 90b7 7e4b 442a a5bf 5e02 e6fa 5495 a23f
00000600: 80a2 6a0b 8a5f c3bf 16b3 1544 bd6a bb3f
00000610: 90b9 867a f5e4 d0bf 4bd5 11f5 2cbb d2bf
00000620: 1d46 b712 f25d dbbf 6c56 e8dd 8eda ae3f
00000630: 9e41 9ee0 4a67 e1bf 8011 9f68 66c4 db3f
00000640: c70b cb25 7993 c93f 5589 8828 57e2 cd3f
00000650: c5de 78cd 9aad 813f 6d9d 2006 2610 c23f
00000660: be75 c51f 5502 ccbf 9b9c 658a ebfb e33f
00000670: 4697 8219 17bc b6bf 33bb d821 996b a13f
00000680: 5208 09cb 1281 d13f bccd 17f8 499f 903f
00000690: 0968 b8ca 6f34 ddbf 9bd5 afdf dd1a d43f
000006a0: 3952 ce0c a6ab d1bf 25c7 fb11 2668 c33f
000006b0: be58 9c05 ab28 c6bf 4eac a348 b2f3 e5bf
000006c0: 4062 4387 cab8 cc3f 6de2 39e9 d76a ba3f
000006d0: ccb5 7feb ce40 d53f d22b 8b41 ddf7 e4bf
000006e0: 2456 d89c b97b dfbf 22a4 7755 05b8 923f
000006f0: 43e9 94c2 8131 cd3f 5df6 3d95 6560 c2bf
00000700: 2893 83e9 d544 b8bf 3274 8d6d 7356 e53f
00000710: 133e 2f68 d36f b13f 894c 5db8 5cb4 b1bf
00000720: 43d8 4392 296f e4bf b9cf eeac 8ea9 d63f
00000730: 0a1f 0b90 a96a c5bf fc1c 2ed2 d9bc dcbf
00000740: 6c77 5309 61fc c6bf e2d9 4eed df99 e43f
00000750: 94a5 2422 fd8f cabf ef53 bd01 c3fe db3f
00000760: 6255 6a34 3190 c93f 66c0 158b 3b6b babf
00000770: 8da2 3ae6 d547 d7bf b35c 9352 7f38 c5bf
00000780: fa0d 3dc9 2b79 cf3f 045a 092e 8ff7 88bf
00000790: ba7c e9ba 9ab0 85bf ba91 933b bc05 d4bf
000007a0: ff42 6f01 9d54 cb3f 9e33 8b7d 574a d3bf
000007b0: 7b01 773e b732 bd3f 3797 9e46 26ed e33f
000007c0: 111e ac0d 3a55 bdbf 8569 199a 5ad6 b2bf
000007d0: cd54 ad3b 7dd1 d0bf b102 11f1 c157 e0bf
000007e0: 95db f58c f2c6 c33f 932d bf2c 6714 d23f
000007f0: e4bf d923 df2a cabf ab67 3cec 276b c3bf
0.2884852760373403 -0.043766232885215965 0.18179725491141246 -0.36904950122700386 -0.19919639845290393 -0.12591010502241232 -0.11052378412383984 0.07566173234418383
0.2002267710919345 0.3195171931217456 -0.13738155500562246 -0.1730829479799433 0.5977819876848879 0.08326239053479452 -0.15138859413079336 0.21908433266467364
-0.2806903548584138 0.2641069532552178 0.23911734423305217 0.31306939383893945 -0.33641449306631405 0.027935756874666814 -0.13208753758390918 0.17580646605933628
0.29145406714220495 0.023963249735447837 0.03796980233290377 -0.6043984988060793 0.4229559925141649 -0.5097498199940039 -0.3784758933863941 0.3043913622598775
-0.111806052085067 0.15460622975144453 0.05066129794471344 0.5551616478286897 -0.07417174633184967 0.03220412124325195 0.7271668622759379 0.5324188541531338
-0.5557840622814143 0.2478715334838216 -0.08958219991978189 0.13774482903278315 -0.5719285458256779 -0.2331580741341455 -0.2151285585602446 0.003774257296766753
0.46805478221475594 -0.01890467018508009 0.5187925462743506 -0.5292763874137293 -0.5793402296552775 0.29763875098743114 0.38583279990001784 0.3340440190521371
0.5108043295756731 0.3090149618000696 -0.6075554027414042 -0.24679000525961892 0.4328042009090506 -0.5526386147397558 0.35865865718651885 0.4155488915243779
-0.3225314635556064 0.10786474033240687 -0.17222880856745199 -0.14058917600931958 -0.1653857623587071 -0.3808661195174377 -0.4751835791861242 0.16730865594533817
0.5443778280017353 0.141006823514258 0.5026389038263355 -0.2494100761951739 0.27290114171557484 0.5081525225085797 0.22586838826800054 -0.2960393336315739
-0.26446193621205455 -0.0037382217273830235 0.1179180291932321 0.6835882716374351 0.3644849532147597 -0.45949685775051685 0.0005444691058899575 0.2646122060662253
0.13030113309587008 0.5089262435744587 -0.06230972773938986 0.26843812693415087 0.07271569517366731 0.06989529584982881 -0.13388544751105175 -0.20849887886081686
0.46272924303677376 0.12820096432468192 0.1682183470989964 -0.06942216892709108 0.5292001418184595 0.20385936290668333 -0.16583359799233038 0.1567532532536563
-0.20350749622191658 0.06798647453245683 0.43611479940621806 0.27583485920975814 0.4391116337498893 0.2910361417702649 0.14722096198688986 -0.2018687856846534
0.4633522177070802 -0.16125120843234192 0.03080205632380426 0.08134899121927845 -0.048848336966202506 -0.3841719179744723 0.24699592023646066 0.6819299845797665
-0.1280440965807684 -0.24983316385069887 0.5367500728382896 0.15491409892345673 0.09953240909903828 -0.22652455255679604 0.4444583854583932 -0.2952806892572277
0.2261293368585124 -0.6130482311506947 0.1310764833986214 -0.23510758964320938 0.08095643592285529 -0.16366919922005582 0.19253282854729709 -0.15951475629667905
-0.2681776202946944 0.23544925425410151 -0.09533382289395637 0.12814058536228798 0.28845564049111116 -0.6867987638519862 0.5345541009381843 0.020968946268200773
-0.3576189816554458 0.47341142610801085 -0.039333868963414544 -0.033115624115719396 0.5405277508339067 -0.42092607918507824 0.11828847542130125 0.43870103742032
-0.07001164089684771 0.215030402415303 -0.1818737471252088 -0.2098031221685296 0.0011455424984287282 0.49385949083633984 0.2743983168897896 0.5483764623933953
-0.10239224107923083 -0.018028832575369923 0.08496380439466102 -0.19797763808220062 0.06912499978248325 -0.3827447697373597 -0.11112044582418112 0.1401062602458467
0.2562031330340039 0.15047208493831907 0.14895349345635814 -0.42347732987254866 0.31784082496053595 -0.144322452626986 0.857588021630694 0.4433876893378508
0.23946744069470083 -0.23536812748052 0.22192609649397432 -0.4334888975660449 0.2908416124536465 -0.10973266802912295 0.2568115333722209 -0.1699257964352031
-0.5804966041205192 0.64183156727578 0.2294409056538627 -0.2254893857153364 0.7763233945417123 0.5643135731881008 -0.04133809491700824 0.03629556238866337
-0.15135312612007468 0.10709746277070695 -0.26397454228836015 -0.29267429287513796 -0.4276089842579454 0.06026121577103258 -0.5438589465211867 0.43386230675630344
0.1998130259072168 0.23346986273925077 0.008631905932915082 0.1411178140562969 -0.21882118274053924 0.624501962954031 -0.08880752919011767 0.03402403391043265
0.2735030157820165 0.016232639090913756 -0.4563254813853069 0.3141398128930974 -0.27610160112934384 0.15161586645222616 -0.17311609052621252 -0.6859980982529892
0.22438937763833344 0.1031928009414373 0.33208058355270675 -0.6552568702840011 -0.491926577729233 0.018280108777535393 0.22807332993563464 -0.1435667971344853
-0.09480034781479374 0.6668030872057271 0.06811257642333883 -0.06915835858426268 -0.6385696274508138 0.35409895790075613 -0.16731757672663888 -0.4490265419521646
-0.17957699733136268 0.643783534519397 -0.20751918952127524 0.43742442293051814 0.1997128969129945 -0.10319873948697164 -0.36375949366860355 -0.16578666240704862
0.2458853466615521 -0.012190931885169405 -0.010590752438643814 -0.3128500539590068 0.21351969308900462 -0.30141246090061624 0.11405511164685393 0.6226989154135713
-0.11458170732304775 -0.07358328115643616 -0.262786205557245 -0.5107125957802819 0.15450889475661414 0.28249530191234234 -0.20443333864704905 -0.15170764002760725
