W2.npy (npy, 928 bytes, 1 tensors)

array f8 [10, 10]
-0.3525497599971672 0.5211266797790228 -0.11778064232956019 0.19928446307753728 0.36970982666896474 -0.4131889447957431 -0.5664647478068303 -0.6543584444208992
-0.1724971126913024 0.8764796750184431 0.1807507144251113 0.23792059519239847 -0.6616204445367746 -0.2966399077364799 -0.31679030975733635 0.4137963430452657
1.3302518350508366 -0.23981840727511133 0.5690061584915196 -0.825547457765835 0.22065202123017993 -0.14442128066578627 -0.9363087843054654 0.18339700326586983
0.34672594719169897 0.20520861527095224 -0.06016722689295055 0.07648679518021068 -0.5468085034529026 0.7851608555351884 -0.04042727987696571 0.03324655076967108
0.3534990422856822 -0.38575011963053263 -0.3182205346796915 -0.47605861378858866 0.5999866742162242 -0.4121743822896679 0.09823140534753244 0.43590044868492606
-0.2478233585884871 -0.28213276459651404 0.44830717408817555 0.458943916697687 0.44375792836135863 -0.28121905813422393 -0.39333333520946134 0.35676478965986763
-0.27489710958362534 -0.8553013535088332 -0.9913748062341329 0.5404585165894217 0.13094748019267857 0.5170902871867388 0.28859986740469235 0.21312428583392878
0.034520289359929866 -0.6343629740059542 0.7657201009733017 0.011964215976117408 -0.7201482521011568 -0.37334522953813176 -0.7936920649021414 0.8453742068006069
-0.516875845967351 -0.3004451315246353 -0.23154418492206072 0.35605373838671184 -0.3028042359500871 -0.212562476257478 -0.26880673811679606 0.8094405220265533
0.5939131574849342 -1.2305432409169454 -0.007553438014945065 -0.35128123513401366 -0.8903309473726873 -0.08338032656299782 -0.2732910710475254 0.11985784633579788
0.26788909190460874 0.1661666289405667 0.25287419294982405 0.37139518526231013 -0.3700234793333554 0.25041135999410924 0.26616160797226124 -0.2677759646066279
-0.5724679111545472 -0.22304293997615446 -0.05912804037165988 -0.43300625461893394 1.0075588691647768 -0.4825331892904774 0.9202667306091408 -0.2729539180258051
-0.09421550153670578 -0.3716890274222384 -0.1466534927070259 -0.5229500574511791
00000000: 80a1 59de 2c90 d6bf be2a d7db 11ad e03f
00000010: 0f47 e846 df26 bebf b26c c23d 2782 c93f
00000020: e164 a367 53a9 d73f 94da 3d0b b071 dabf
00000030: e659 c5ad 7a20 e2bf 36c6 d41e 81f0 e4bf
00000040: e0ef d4a8 6214 c6bf 7403 7a1a 1f0c ec3f
00000050: 519d 97e3 d622 c73f e3b6 b29b 2e74 ce3f
00000060: 50d0 74a3 fe2b e5bf 35aa 9af3 25fc d2bf
00000070: f03c 06dd 4a46 d4bf 325d 25a8 a37b da3f
00000080: 1acc ef25 b648 f53f 4ada 1c9c 5eb2 cebf
00000090: 8a32 3e67 4c35 e23f 76ce 8c80 e26a eabf
000000a0: 096e 7d4f 533e cc3f a72a a782 657c c2bf
000000b0: 7095 f1d6 3df6 edbf 680c 9b91 8d79 c73f
000000c0: e73a f706 c230 d63f a01c b9a1 4644 ca3f
000000d0: 06ac 971f 3dce aebf 84f6 df7b a394 b33f
000000e0: 4d28 f08b 747f e1bf bdef 93a8 0920 e93f
000000f0: 3128 e069 e2b2 a4bf 9e65 8520 b105 a13f
00000100: 6632 7272 ba9f d63f 3c70 0f45 21b0 d8bf
00000110: ab5a 57a9 b95d d4bf 8bde 4c8c be77 debf
00000120: 756c f940 1733 e33f 53b8 0ba9 1061 dabf
00000130: b463 6881 b125 b93f 8476 dafe cae5 db3f
00000140: 7b45 2902 adb8 cfbf 329d 4495 760e d2bf
00000150: 4e56 d192 10b1 dc3f ad8a 3a4e 565f dd3f
00000160: 98c6 69a7 8766 dc3f d3b2 6c38 7eff d1bf
00000170: f2ad c994 5f2c d9bf 5505 fdfb 3bd5 d63f
00000180: 664d db0b ea97 d1bf 6c70 b1f1 a05e ebbf
00000190: 7553 5ba8 57b9 efbf 6514 b3a8 6f4b e13f
000001a0: a5e8 7514 e3c2 c03f 377b 11ee 008c e03f
000001b0: 8c84 0894 6b78 d23f 26ee d116 a847 cb3f
000001c0: bbde b2b3 a4ac a13f 8ec3 6494 b34c e4bf
000001d0: a83e f270 c780 e83f 3fb7 b7e2 b180 883f
000001e0: 1879 e158 740b e7bf 0af8 be63 e3e4 d7bf
000001f0: 572e bbe6 ec65 e9bf c4e5 6235 4e0d eb3f
00000200: 18b5 d036 3f8a e0bf ad01 8937 7e3a d3bf
00000210: 6fdc e866 3da3 cdbf 6e53 7f9e 95c9 d63f
00000220: b0bc 9f04 2561 d3bf 7ffa f049 3f35 cbbf
00000230: 25fd 492d 2134 d1bf aa28 45cf efe6 e93f
00000240: 01fb 812a 5601 e33f 86d5 001c 4eb0 f3bf
00000250: bce0 f193 5af0 7ebf 3e57 264a 647b d6bf
00000260: eea2 b253 977d ecbf b4c6 b7bf 6958 b5bf
00000270: 1d07 1cd5 997d d1bf 1866 2efa 00af be3f
00000280: 22de 2b4a 1825 d13f 1d3f 7eb6 f244 c53f
00000290: 6a33 2e3d 172f d03f a1fb a54f f0c4 d73f
000002a0: 074a 9ff5 76ae d7bf 662e 6e5e bd06 d03f
000002b0: bf43 6cb2 ca08 d13f 02fb a8cc 3d23 d1bf
000002c0: 0262 8d39 a851 e2bf 2990 66ca ab8c ccbf
000002d0: 637f 58cf 0746 aebf 3450 a3dd 5fb6 dbbf
000002e0: 27b8 7d0c f61e f03f ec2d cfe2 d2e1 debf
000002f0: ee04 f236 d372 ed3f f318 cfb5 1378 d1bf
00000300: 095b e0d1 811e b8bf 3ce0 43c6 c0c9 d7bf
00000310: 3dab 82a9 8ac5 c2bf 5b36 46c2 01bc e0bf
